model/lstm_model.pt (torch, 191846 bytes, 6 tensors)

lstm.weight_ih_l0 f4 [400, 13]
00000000: 163e 73be cc35 f3bd 2d6f 10bd 4638 d0bd
00000010: b2fb 023c 5125 0c3e 9695 233d 025d e9bb
00000020: 4624 20be 1def 423d 65d7 2dbd 7dbf 953d
00000030: 366b 23be cd6b cf3d bfc0 0ebe 0d6c 993a
00000040: adef 763d 9832 f43c 891c d33d 650a 6b3d
00000050: c60e 423d 0015 273e a1a2 cebd 4610 0b3d
00000060: a210 84bc 8669 89bc e1db 813d a164 e53d
00000070: 516f 353e 62ee 113d 5dc2 5d3e 421c 133e
00000080: 987c df3d 6322 663e 285f 6e3c f240 193e
00000090: 54bd 243e 1aac f53d 5b2c 1e3e 8a9d 873d
000000a0: d544 033e 3fd6 14be 1790 713d e802 1a3e
000000b0: 7106 25be 8810 963e 2332 aabd ac0f dabd
000000c0: ed74 25be a4bd db3d 62d6 8c3d 7a97 f43d
000000d0: ba57 95bd 64a6 34be 8915 9abc 1239 aebb
000000e0: 7a69 243d dffa 1abe edab 8a3e f0bf 7fbc
000000f0: 710c 2a3b d098 8fbb 9378 0d3d 1d0b 0bbd
00000100: 50c9 603a 2e77 b6bd 834f 3d3d 633c 00be
00000110: 6c1d 92bc c323 e8bd 2f50 fabd 0318 2b3d
00000120: 3632 493e bccb edbc 099e 263d 587e 1fbd
00000130: d988 40bc 5e31 4d3c 8539 11be f623 ce3d
00000140: 3894 8ebe 9421 f1bc 54c9 42bd 3a71 0abe
00000150: a25b 2bbd e2ea 7f3c 4847 50bd 3435 b7bd
00000160: a0b3 78bd 5367 7fbd 767c ec3d 15c2 a63d
00000170: ca00 ad3a 596a aabc 0f19 cbbd d789 083d
00000180: 72ab 4a3d b82a 0ebe ac99 053e 99af 13be
00000190: 0953 5f3e e1ae fdbd 6898 f83a c19f 5bbd
000001a0: 3fc0 9ebd 59fd c8be 1459 22bd c7f0 f6be
000001b0: b9f5 d9be 43b3 a1be 8b62 a53e d750 e5bc
000001c0: ef2d 9ebe 298d fcbe cffc 89bd 19f8 dabc
000001d0: 76c4 54be d0fc 9a3d 7072 de3e c722 423d
000001e0: fe2f c93e ebca eb3e 5981 763e bd1d c3be
000001f0: 7275 873d 05a8 873e 9932 963e ef3f f6bc
00000200: e87c 963d a7cd a93d bba4 70be 319e ddbd
00000210: b59a d1be f0ce ed3d 9642 2cbb 6fb5 c8be
00000220: 962b 443e 30c8 c1bd df46 37bd a74a bcbe
00000230: 6008 9ebe a9e4 1a3e e352 12bd 1849 853e
00000240: 2e9d 04bc 720b 78bd d073 84bc 4c3b 6dba
00000250: 3f8e 503e e895 18bd e690 7dbd f0f3 9bbd
00000260: 0418 8bbb e47e 363d c92a db3c 8c65 c53c
00000270: 0cf1 793d b352 5abe edef d1bc db64 5bbe
00000280: 49a6 25be 9a42 b6be 0a03 39bc 01b7 33be
00000290: ea0a f5bd 152f 91be bd9d a73d 8ace 18be
000002a0: fe85 df3d 9f54 dcbd 32a9 203e 5729 0ebe
000002b0: a6b4 febd 358b 5dbd 5e49 13be 5f55 6a3e
000002c0: 7ca5 6fbe ff5a 1d3e 8b55 c73d 220e 45be
000002d0: e744 153d b713 433d 3edb e03d c684 f63e
000002e0: 400f 8b3e 4e2f 103f 8306 ff3e 8164 863d
000002f0: da5e c43e ce00 1e3d 244f c53e 0099 0c3f
00000300: 1046 9c3e fc7c 923e 62b1 9a3e d60d 29be
00000310: 36ba 3dbe 98c6 95bd 1f73 0f3e ef1e b0bd
00000320: 32b7 cebe 2123 0bbe b4b7 11be da11 943d
00000330: 27fc 69be 6799 70bd 5416 38be befc b9bc
00000340: 2041 7fbd aeda 57be 4c5f 813d 8d84 babd
00000350: b08c 03be 1d37 293c dd82 293e 2bdd 8dbd
00000360: 0ff7 5cbe 1b05 59bd 90b9 663d 978f a9bd
00000370: 569e 27be fe80 76bd c8cb 0c3e 6541 23be
00000380: 4152 493d 92c1 7ebd b031 1a3d 1e5a b9bd
00000390: 1930 f23c daa2 84bd 8302 503d 0073 0d3c
000003a0: 938a 05bd 183a 003e 91b7 67be 909c d3bd
000003b0: 7583 e7bd ed29 3dbe f416 edbc 8f11 093e
000003c0: b47d d33d 99a4 40bd a102 56be 9f51 f53d
000003d0: 8145 fa3d 6ba7 9bbd 9aa6 873b df16 90bc
000003e0: f8dc 27bd d25e abbd f62b 68be 95d0 b0bc
000003f0: 7a7f 1abe 5e2f be3e 6345 093e 6bc5 5abe
-0.23754153 -0.11875495 -0.035262275 -0.10166983 0.007994579 0.1368611 0.03993758 -0.007121683
-0.15638837 0.047591317 -0.042441744 0.07311914 -0.15958866 0.10127983 -0.13940714 0.0011705175
0.060287166 0.029809281 0.10308177 0.05738296 0.04737737 0.16316605 -0.10089613 0.033951066
-0.016121212 -0.01677395 0.06340767 0.11200834 0.17718245 0.03562773 0.21656175 0.14366248
0.10912436 0.22474055 0.014549054 0.14966181 0.16087848 0.119957164 0.15446608 0.06621845
0.12819226 -0.14534853 0.058975305 0.15040171 -0.16115738 0.29309487 -0.08310344 -0.106475204
-0.16157885 0.107295305 0.06876828 0.11942954 -0.07292123 -0.17641598 -0.018809097 -0.005316862
0.040139653 -0.15134762 0.27084294 -0.015609726 0.0025947357 -0.0043822303 0.034538817 -0.033946145
0.000857492 -0.089094505 0.046218406 -0.12523036 -0.017836295 -0.11334946 -0.12222325 0.041770946
0.1964806 -0.029027812 0.040678058 -0.03893885 -0.011751377 0.012523977 -0.14182098 0.10065453
-0.27847457 -0.029434957 -0.047555283 -0.13519755 -0.041835435 0.015619965 -0.05084923 -0.089456946
-0.06071818 -0.062354397 0.115471765 0.08142487 0.0013199088 -0.020802664 -0.09916889 0.03333458
0.04947991 -0.13883483 0.13046902 -0.14422454 0.21809019 -0.12386871 0.0018966319 -0.05361915
-0.07751512 -0.3925579 -0.039635733 -0.48230574 -0.42570284 -0.31582078 0.32301745 -0.027992649
-0.3089442 -0.49326447 -0.067376725 -0.02672963 -0.20778069 0.075677514 0.43446684 0.047396448
0.39294428 0.46053252 0.2407278 -0.38108626 0.06614198 0.26495376 0.29335478 -0.030059783
0.07348043 0.08291178 -0.2350034 -0.10821188 -0.40938345 0.11611736 -0.0026284805 -0.39200923
0.19157252 -0.09462011 -0.044745322 -0.36775705 -0.30865765 0.1512629 -0.03572358 0.2603233
-0.008094115 -0.06055779 -0.016168505 -0.00090496684 0.20366763 -0.037252337 -0.061905764 -0.07614887
-0.0042448062 0.044554606 0.0267538 0.024096273 0.061020896 -0.2132061 -0.0256271 -0.21425192
-0.16176714 -0.35597688 -0.0112922285 -0.17550279 -0.11964972 -0.28356233 0.08184383 -0.14922538
0.10914229 -0.10758328 0.15689543 -0.13882957 -0.124368 -0.054087836 -0.14383456 0.22884129
-0.23402971 0.15366744 0.09733113 -0.19243672 0.036442664 0.047626223 0.10979317 0.48148173
0.27160072 0.5632218 0.49809656 0.06562138 0.38353616 0.038574986 0.38536942 0.5492096
0.30522203 0.2861098 0.30213457 -0.16509184 -0.18528065 -0.073132694 0.14008759 -0.0859965
-0.40374142 -0.1358762 -0.14230233 0.072299674 -0.22850095 -0.058740046 -0.17977268 -0.022703525
-0.062317967 -0.21079513 0.063170046 -0.09107313 -0.12846637 0.010328081 0.16553827 -0.0692695
-0.2157862 -0.052983385 0.05632931 -0.08279341 -0.16368994 -0.06018161 0.13749611 -0.15942915
0.04915071 -0.06219632 0.037645042 -0.090503916 0.02956395 -0.06476374 0.050783645 0.008633375
-0.032602858 0.12522161 -0.22628619 -0.10332596 -0.1130437 -0.18473025 -0.028941609 0.13385604
0.1032671 -0.047031973 -0.2089944 0.119784586 0.12220288 -0.07600292 0.0041397335 -0.01758903
-0.040982217 -0.08367695 -0.2267302 -0.021583835 -0.15087691 0.37145513 0.13405375 -0.21364371

lstm.weight_hh_l0 f4 [400, 100]
00000000: 515b 68bd ac54 e0bc 0d6d ffbd 765d 123d
00000010: 1c4f 4dbe 38f4 c63d 25dd 89be 8305 1cbd
00000020: 1e3e 06bd 000f f5bb 46e4 2e3e c84a bcbd
00000030: 52a0 ddbd 39fb a33d 52a1 80bc d47d 303e
00000040: 2436 c93c a015 213d de6f 593d f2d4 003d
00000050: f528 c5bd 537b 243d 47af 5d3e 9f49 72bd
00000060: 6886 653d a6cb 5ebc 8543 08bd 09de 8ebc
00000070: 1080 843d 7897 d83d f133 953c b098 173d
00000080: 1bd9 b63d 2d1a 1c3e 4648 313e faa9 51be
00000090: e2ab cf3d eeaa 4ebe 874a 40bb e6d0 96bd
000000a0: 0513 63be 9a30 37be 936b a13d 17ed 573c
000000b0: cdb8 75bd 3d7b edbd 4f40 bebb 9faa 4c3e
000000c0: d131 793c e9ab fa3c 3c5c 90bd cff5 02be
000000d0: d2b7 10be a52e bb3d dfb8 10be cee0 e8bd
000000e0: 2d71 f73d 2d68 ac3c 95ee 0fbe 76c9 e83d
000000f0: 7414 4d3d 1f9a c53d b284 903e 92c5 6a3c
00000100: 2d56 f0bd 75eb 0c3d 585e e6bd 21ca 83bd
00000110: a956 57be 1037 0c3e c48a 90bd 3c0d 243e
00000120: 1625 04be 9a73 c9bd 151f 853e d335 d73d
00000130: b27c 1dbe ec2f 7b3d ec6a 3f3e 4a2a 31be
00000140: 5879 213e dd9c 94be 5ac7 143b 2b78 1c3e
00000150: b886 033e 76e1 8a3e c8b8 313c 7dee 3e3d
00000160: 5723 cdbd bf8a 893d a26b 5bbe cbed 4fbc
00000170: fd98 ee3d f2d8 01be 5fc5 2bbe f842 8dbd
00000180: 7a94 e93d 10f0 d7bd 3d6e b53d ab5c 16bd
00000190: 58b2 42bd a3a7 1d3d b9ae 013e d483 23bd
000001a0: 6250 f03b 0fda 1abd 77d9 a5bc e18f 913d
000001b0: 0df8 0dbe 1132 3b3d 1e9d 5dbd de17 4c3d
000001c0: 5cdd 00ba 7968 69bd 5e35 133d b670 143d
000001d0: 5007 63bd e1fc abba 0ba6 ca3d 9047 94bb
000001e0: 9ae0 673d b9f9 da3d 45c5 1abe eeeb ac3d
000001f0: 5bae 8fbd 070e 0a3d 2b61 893e 54fa d4be
00000200: f63b 203e 0f2b cebd f01c 06be 6a9b 643d
00000210: c673 3cbd bd99 d3bc 5702 d93c 4bc6 95bc
00000220: a47a 17be 20a9 37be 1d20 c33e 89e4 a3bd
00000230: 865c 77bd 368d 9a3c 228c 96bd 62dc 02be
00000240: 3a8f aabd 2738 9b3d 440b a93b a280 3b3c
00000250: b39c a1bd 65c3 0bbd d232 e8bd e89a aabc
00000260: 2b70 e13d 70cb ce3d be1f c1bc c827 c9bd
00000270: 7cd4 78bd 2220 8dbd aa37 68be b482 153e
00000280: df16 083e 6891 ebbd 6a7c a03d e057 953e
00000290: bd5f 35bc 7bcc b5bd d03a 883c 8cac 1abe
000002a0: 2c88 f93c 8a49 23bd 57ca 383d 3362 3c3e
000002b0: 4fc2 d13d 454b e53d e503 803e be6a b3bc
000002c0: 267b 39be 6ee6 8a3d 34d8 95bd 41a9 c5bd
000002d0: 73e0 3e3e bbe3 233c bc85 a73d 531b 823e
000002e0: 52b0 84bd 51d3 813d 8e68 62be b301 03be
000002f0: ebf7 1bbe 9d96 f53c 91a0 dab9 2a77 0dbd
00000300: 212a ab3c 0874 40be b1d4 9c3c ada8 913d
00000310: 892e 11be 12c4 373d 06d4 ecbd abd3 85be
00000320: a610 66bd e060 a53e 183f a6bc 1f3c 91be
00000330: ff9a 9e3e e454 dc3d 43fa dabd a5e7 76bd
00000340: 76fb 583e 165f febd b21b 2fbf ef29 c33c
00000350: e095 40be 0837 8f3c c188 10bf 30bf a03e
00000360: 5ebd af3e 0e95 483e f2e7 85be 7079 93be
00000370: 09a8 573e df85 1abe b691 a1be 8254 88be
00000380: a603 93be d1b4 95be dd23 e23c 2e50 99be
00000390: 2ce4 98be c67f 3fbe 5115 bd3e 3c1e b8be
000003a0: 566c 4f3c 303c 553e 3ae1 453e af11 af3c
000003b0: eb6d a43e ecb1 373e fac0 d03e c712 a6be
000003c0: c969 d93e 0000 ae3e 1462 f6be 6392 c53d
000003d0: a696 313e 40fb ab3d d962 ed3e f6dd 813e
000003e0: 5d3d 913e 8877 2dbe f93e 6ebd 4450 813d
000003f0: 806a 15bf eb1c 21be 6b3e 673e e886 a53e
-0.05672771 -0.027384125 -0.12471972 0.035733663 -0.20049709 0.0971455 -0.26926532 -0.038091194
-0.032774083 -0.007478595 0.17079267 -0.09193951 -0.10821594 0.08006901 -0.015701924 0.172355
0.02456195 0.039327264 0.0530852 0.03145308 -0.096269526 0.040156674 0.21648894 -0.05915224
0.056036383 -0.013598358 -0.033267517 -0.017439859 0.064697385 0.10575765 0.018213244 0.03701085
0.08928128 0.1524436 0.17312726 -0.20474997 0.10140206 -0.20182392 -0.0029341297 -0.07364063
-0.22175224 -0.17889634 0.07881846 0.013179085 -0.059990693 -0.115957715 -0.005806006 0.19986962
0.015209631 0.030599551 -0.07048842 -0.12789081 -0.14132622 0.09139756 -0.14133023 -0.11371003
0.120821334 0.021045769 -0.14055856 0.113665506 0.050068334 0.09648537 0.28226238 0.014329331
-0.11735187 0.034404237 -0.112484634 -0.064350374 -0.21029152 0.1369288 -0.070577174 0.16020674
-0.12904772 -0.098365024 0.26000276 0.10508313 -0.15379599 0.061325 0.18693131 -0.17301288
0.15768945 -0.29025927 0.002270183 0.15280215 0.1284436 0.27125138 0.010847278 0.04661416
-0.10016506 0.06715917 -0.21427777 -0.012690972 0.11650274 -0.12680414 -0.1677451 -0.06897539
0.11405273 -0.10543835 0.08858917 -0.03670947 -0.047533363 0.03848995 0.12664308 -0.039920643
0.007333801 -0.037805613 -0.020245297 0.07107521 -0.13864155 0.045702044 -0.054104917 0.04982745
-0.00049157976 -0.0569844 0.035939567 0.036240302 -0.055426896 -0.0013121628 0.098949514 -0.0045251325
0.05661068 0.10692162 -0.15114315 0.084434375 -0.070156775 0.033704784 0.26831946 -0.41597235
0.15647873 -0.100668065 -0.13096976 0.055812277 -0.046008848 -0.025830144 0.026490374 -0.01828303
-0.14792877 -0.1793561 0.38110438 -0.08002574 -0.06039097 0.018866163 -0.07350947 -0.12779382
-0.083280995 0.075790696 0.0051588137 0.011444243 -0.07891216 -0.03412189 -0.11337818 -0.020825818
0.110077225 0.100973964 -0.023574706 -0.09822041 -0.060749516 -0.068908945 -0.22677484 0.1460064
0.13289975 -0.115023434 0.0783623 0.29168606 -0.011070189 -0.08876892 0.016629606 -0.15104884
0.03046044 -0.039865054 0.04511484 0.18396835 0.102421395 0.11195997 0.2500297 -0.021901485
-0.18113384 0.06782232 -0.07316628 -0.09651423 0.18640308 0.010003026 0.08179805 0.25411472
-0.06478943 0.063391335 -0.22110197 -0.12793617 -0.15231292 0.029979045 -0.00041699831 -0.03453747
0.020894112 -0.18794262 0.019144388 0.071122505 -0.14177908 0.04486472 -0.11563878 -0.26138052
-0.05616822 0.32300472 -0.020293757 -0.2836618 0.30977628 0.10758379 -0.10692265 -0.060279507
0.21189675 -0.1242048 -0.68401635 0.023823706 -0.18807173 0.017482296 -0.5645867 0.31395864
0.34324163 0.1958811 -0.26153523 -0.28803587 0.21060194 -0.1509013 -0.3155648 -0.26626974
-0.2871372 -0.29239514 0.027604992 -0.29943985 -0.2986158 -0.18701085 0.36930326 -0.35960567
0.012660107 0.20823741 0.19324198 0.021370737 0.3211511 0.17938966 0.4077223 -0.324362
0.4246352 0.33984375 -0.48121703 0.09647062 0.17342624 0.083975315 0.46364477 0.25364655
0.2836713 -0.16940129 -0.058165524 0.063141376 -0.5836563 -0.15733688 0.22582404 0.32329488

lstm.bias_ih_l0 f4 [400]
00000000: 32d7 07be 0d93 3e3d ebf9 4f3e 0e59 953d
00000010: c4a4 033e fa85 10be 0e10 05be c4ef 34be
00000020: 2875 a0bd 4bc9 af3d 9053 86bc ba97 433d
00000030: b45d da3c 026c 243d f733 a13e dab2 debc
00000040: 95e0 f13c 9748 a5bd 38d6 5cbd 43f1 073d
00000050: 507a 8a3d a91a 6a3e c256 6c3e 6ee0 24be
00000060: 85c3 f33d 47ad f7bd 98bf fd3d 5c86 4fbe
00000070: 3698 453e 51e6 813e 9c05 d6bd d63c 6a3d
00000080: 9f60 a53d c1c8 4fbd 72dc 5c3d 7485 103c
00000090: 4ef1 8d3e 7b41 f8bd 159f e53e 4f82 6f3d
000000a0: b56d babd 3f68 1dbb 414b 4fbd 1afe 923e
000000b0: e968 04bd b486 773e d606 003d 0dcc 663d
000000c0: cc9d 553e 9d30 0cbc 14fd ca3b 98e9 103d
000000d0: 07f9 643e 29f4 e03c fa3f a83d dbd7 2ebd
000000e0: 5aeb cabd 414f 253e e923 cd3e fa16 1ebe
000000f0: 0e81 c03d c297 a33d 5b2e 623e 2607 6d3c
00000100: 1cf4 043e f283 9dbb 11dd 173d 2926 b23d
00000110: 4d9d 673e 33d5 adbd 07b9 31be 3121 07be
00000120: 9474 303c 41a1 0bbd 722b ab3c 73a3 cb3b
00000130: a6aa ebbb e813 71bd ecde 593e 09f5 3fbb
00000140: db48 173e 257d 733e 2874 d9bc a0f3 f73e
00000150: 8cc5 30be d82c 5f3d 6799 8d3d e507 8b3e
00000160: accb db3b 2e0a c9bd 4242 963e cc95 493c
00000170: f632 17be ff9d 31bd 9ca2 493e 6c45 67bc
00000180: 9bdf 883d 8657 e8bd 38e7 443e 78f6 c13b
00000190: 74ec 18bc be9b 6ebd f8dd b93d 55b0 cfbd
000001a0: badb 123e 37bb a9bd 4428 c63d a8be ddbd
000001b0: affc a03d 5733 1b3d 30fc cc3d a30d b73d
000001c0: 1e36 2b3e ce5f 23bd 5bfc 08be 4d8f a93d
000001d0: 20db 11bd b4b1 25be d49b 56bd dc09 b5bd
000001e0: 7748 793d 29c5 cf3d 17f6 383e 3858 cabd
000001f0: fb43 adbd 0e14 f1bd 6892 8abd 8a04 3bbd
00000200: 8177 2cbe d954 91be 239a 0cbd bb7d a6bd
00000210: b01b 38be e8fb 85bd fefa 39be ac72 1c3e
00000220: 2f4b 0dbe 4ce7 52bd 0a85 ccbd a5b9 21bd
00000230: 47be 2cbe 2588 1c3e ecdd 263d 5f68 eabd
00000240: 0ef5 2ebc aa03 2fbe 755b b0bd 51fd 133e
00000250: 0b02 2dbe e4cd 783c 7c8c edbd 746b d13c
00000260: 1a04 97bd a07c b83d a371 f4bd 9d3a 853d
00000270: ed29 00bd 6c76 64bd a38e 32be 0c02 8dbd
00000280: b4aa f0bd 7347 2abd f464 e0bc 1c79 edbd
00000290: 37ba 99bd d5d0 7c3d 5a76 5dbe a8ad 45be
000002a0: 8faa 86be 6fc0 62bd aecc a03c 5374 f63b
000002b0: e966 ab3c 42bb 593d e6ef 6cbd d33b d33d
000002c0: e464 adbd 1f63 59bc b49f 6abd 0461 a8bc
000002d0: 8fdd 85be 92fe 02be 8bb9 5a3c 8890 37be
000002e0: 16b2 c5bd 6bea fabd 3e66 f13d bee9 08be
000002f0: ada9 1ebe 27b2 03be 7f59 aebd 2d60 17be
00000300: f9a4 16bd adfd eabd 20cc c3bb 03ed f8bd
00000310: 9be7 233e 3d52 11be 0310 b8bd 52d9 5d3c
00000320: bddb 403d 708e cd3c 539b bdbc 30af 00bd
00000330: 6e69 da3d 88a6 5b3d 58c6 32bd c981 9bbd
00000340: 3a0c 973d 8437 a0bd 89a0 013d 4723 8cbc
00000350: 2207 a6bd a54e 653d 0fd7 5f3b d3a7 34bc
00000360: 9cf2 a1bc 7093 78bc 8612 233c 1a0e 7c3b
00000370: be8d aabd 0ae3 133c 161f a83d 7dbc 6abd
00000380: 376e 32bd ec0e 613d a055 2b3d 5dd0 48bd
00000390: b9b8 28bd 0ca9 eabd 123d 8b3d 5269 0f3d
000003a0: f0b8 43bd bd91 5b3d d0f6 593d 75ac adbc
000003b0: 5827 1d3d 7512 dd3c 930f 1fbd 6877 133d
000003c0: 8080 0cbd 2f8d 69bd c8cf 7e3d eae0 81bc
000003d0: 8c41 0abd ac50 19be 2c24 693d d27b 873d
000003e0: 905c 8e3d 8ead 8b3d 6a7e 0dbd 6528 e53b
000003f0: aec4 b2bd 4416 01bc ae1f b1bc 5d70 2d3d
-0.13265684 0.046526957 0.2031018 0.072923765 0.12855822 -0.14113608 -0.12994406 -0.17669588
-0.07834846 0.085833155 -0.016397268 0.04775212 0.02665601 0.040142067 0.3148496 -0.027184892
0.029526034 -0.08070486 -0.053915232 0.03318907 0.067616105 0.22861733 0.2307997 -0.16101238
0.11902527 -0.12093597 0.12390059 -0.20266098 0.19296345 0.2537103 -0.10450289 0.057186924
0.0807507 -0.050728563 0.05392117 0.00882088 0.27723163 -0.121218644 0.44847932 0.05847388
-0.09102956 -0.0024018434 -0.050608877 0.2870949 -0.032326613 0.24172479 0.03125652 0.05634694
0.20860976 -0.008556512 0.00619472 0.035379022 0.22360621 0.027460175 0.082153276 -0.042686325
-0.09908171 0.16143514 0.4006646 -0.15438452 0.09399615 0.0798793 0.22087996 0.014467036
0.12983745 -0.004806989 0.03707606 0.08698685 0.22618599 -0.0848793 -0.17355739 -0.13196255
0.010769982 -0.03408933 0.02089474 0.006214553 -0.0071919737 -0.058856875 0.21276444 -0.002929034
0.14773886 0.23778208 -0.026544645 0.4842806 -0.17262858 0.054486126 0.06914025 0.2715446
0.006707629 -0.09816395 0.29347426 0.012303781 -0.14765534 -0.043363567 0.19690937 -0.014115673
0.06683274 -0.11344819 0.19228828 0.005919274 -0.009333719 -0.058253996 0.0907554 -0.101410545
0.14341632 -0.082876615 0.09675649 -0.108273804 0.078606956 0.03789076 0.100090384 0.08938148
0.16719863 -0.03988629 -0.13377516 0.082792856 -0.035609365 -0.1618107 -0.052394703 -0.08839771
0.060860123 0.10145027 0.18062626 -0.09880108 -0.08460232 -0.11771403 -0.06766206 -0.045658626
-0.16842462 -0.28385046 -0.034326684 -0.0812945 -0.17979312 -0.06542188 -0.18162152 0.15278119
-0.13798212 -0.051490113 -0.09986313 -0.039483685 -0.1686946 0.1528631 0.040738985 -0.114456885
-0.010678543 -0.17091241 -0.08611194 0.14452101 -0.1689531 0.015185807 -0.11599061 0.025563933
-0.07373829 0.09008145 -0.11935737 0.0650532 -0.031289984 -0.055777 -0.17437224 -0.06885156
-0.11751309 -0.041572046 -0.027391888 -0.115953654 -0.07506221 0.061722595 -0.21627179 -0.19304526
-0.26302 -0.0553593 0.019628849 0.007521191 0.020923095 0.0531571 -0.057845972 0.10314145
-0.08466509 -0.013268261 -0.05728121 -0.020554073 -0.26145598 -0.12792423 0.013349901 -0.17926228
-0.09653108 -0.12251743 0.11787079 -0.13370416 -0.15494414 -0.12860928 -0.08513164 -0.14782782
-0.036778424 -0.11474166 -0.0059752613 -0.121545814 0.16006319 -0.14191528 -0.08987429 0.013540583
0.04708456 0.025092334 -0.023145353 -0.03141707 0.1066464 0.053625613 -0.043646187 -0.07593114
0.07375379 -0.07823089 0.03164724 -0.017106665 -0.08106829 0.055983204 0.0034155285 -0.011026341
-0.019769005 -0.015171871 0.009953147 0.0038460554 -0.083278164 0.009026298 0.08209054 -0.057308663
-0.04356214 0.05494587 0.041829705 -0.049026836 -0.04119179 -0.114580244 0.067987576 0.03501255
-0.047783792 0.053605784 0.053213894 -0.021200398 0.0383676 0.02698634 -0.038833212 0.036002547
-0.034302235 -0.05701941 0.062209874 -0.015854318 -0.033753917 -0.1497218 0.05691926 0.06615414
0.06951249 0.06820212 -0.034544386 0.006993341 -0.0872892 -0.007878844 -0.021621551 0.042343486

lstm.bias_hh_l0 f4 [400]
00000000: 347b d23c fd9b 433d 2b81 863e fa0d adbd
00000010: 0683 1fbc dc5f c5bc e64b aebc d8f6 afb9
00000020: 625c 293d e6d7 4b3e 34f7 b33d 84d8 babd
00000030: 6912 aabd 9e60 153d cfc2 b13e 7fed 793b
00000040: f4a0 c7bd 7b5d 9f3c ffeb 0abd 61ee e93b
00000050: 6210 313c e70b 263e 488f 813e 5a24 c8bd
00000060: 74f6 163e b38b d5bc d540 833d 7409 94bc
00000070: 2801 8a3e 9985 893e d6a5 b0bd 802e c63d
00000080: ae12 253e 8f23 503d 2d6e c43d 6be7 e53d
00000090: c592 ef3d 5707 d0bd 3134 be3e 49c4 9b3d
000000a0: 5d44 67bd 5005 63bc 6638 f8bd de19 083e
000000b0: f00b f8bc 987f 833d c5dd 11bd ca72 4f3d
000000c0: ecd5 213e 3d20 2fbc 383f 363d a3b6 d6bb
000000d0: 94b6 c93d d9bb 2b3e a1de 133e aabf 8b3d
000000e0: 24dd 5b3d b9f7 583e cd11 a53e 0aa1 bbbd
000000f0: 367a 0d3e e68c 083e a3cb 3c3e 7dd0 d53d
00000100: 4c85 a03d bd19 9c3d 7a32 8a3d 15ac 9d3d
00000110: 2ab5 973e 4373 f7bd 026c 2cbd 197b 16be
00000120: db70 e03d 2616 aebd 144e f0bd 9ae9 263d
00000130: dccc 67bd f014 10bd 4638 763e 0409 8e3c
00000140: 5163 0f3e d20d 9e3e 578e a7bd 8c35 f53e
00000150: b288 01be d5d9 2b3e f6a0 16bd 5065 473e
00000160: f5eb 91bd 0885 afbd 7408 643e bfee 83bc
00000170: ecd9 28be 3219 09bd 0a5a 943e 0247 363d
00000180: 6cbd ddbc c2b1 bebd 418a 8f3d 9438 013d
00000190: ea01 8abd fa15 99bb 371b 083d 4098 5bbd
000001a0: 5960 33bc 21d5 ddbd 7eac ccbd 5a91 c13c
000001b0: 2f8f 89bd afb0 4c3d 71b0 7fbd be51 8a3d
000001c0: 1d6e 703d 24c7 973c 094a 44be 0490 183e
000001d0: f876 1bbe e6d6 0cbe 8b11 c6bd 5e49 bb3c
000001e0: 9ba0 d63c 92a1 81bc 2cc4 e13d ff50 b4bc
000001f0: 44ff 3dbc 1d50 2abe 6808 42bc cfd1 afbd
00000200: d42f e9bb c98a 57be 4a42 02be fb52 c6bb
00000210: d7db 8dbe aa40 c0bd 7b3a c5bd 533c 8b3c
00000220: 369f 713c 478c 27be 5e4f 05be 8c42 1cbc
00000230: 7a39 bebd ffbf 673e ecee 2b3d 2ead 00be
00000240: 7d81 91bd c273 41be 424a 76bd e6f2 063e
00000250: 92c5 85be 4944 81bd 7d2f a6bc acdd 803d
00000260: 947d 20bd fe5e 893d 3320 7abc eac5 293d
00000270: ef6a 14be c44c 14be 48c5 46bd ab03 8bbd
00000280: 5278 b1bd 312e fbbd aba0 61bd 6541 ccbd
00000290: 2736 5ebe 8141 e2bd 268a 5abe 0e78 b7be
000002a0: 9182 dbbd 4b9b 18be 335b b1bd 5f19 8dbb
000002b0: c0ff 0c3d 934d b4bc d4a0 ecbd 4544 61bc
000002c0: a11e f0bc 1bae 073d a9de 2fbe 342b 81bc
000002d0: bdfe 0bbe 567d 7ebd aee9 e0bc 2aea 24be
000002e0: 66a4 87bd bc50 53bc f411 053e 27ef 95bd
000002f0: 3f58 8cbe b617 b4bc 9bdf e9bd 1f67 2dbd
00000300: 3d5e 223d 067d 75be 142b b1bd eaf1 85ba
00000310: 575e fb3c 7dfb 20bd 112e 313d cdea b43b
00000320: 2b5a 2cbc ac79 1cbc 34ff 733c dbb7 c4bc
00000330: 8497 bd3d 1ab0 263d 6ae0 3bbd d047 16bd
00000340: 5a20 ae3d 7792 e3bc e1e6 3f3d 3765 903c
00000350: 8848 a1bd 085b 13bc 1d6f be3b dcb8 98bd
00000360: 7b69 2c3c a900 793c 1275 2bbd 1bad 553d
00000370: 445a fcbd fc70 b53b 8bbd dabc 26bc 90bd
00000380: c2e2 e53d fd92 03bc 891f 863c 9b9d 3bbd
00000390: ab67 823d bb1e 823d 7d94 723d 67c8 293d
000003a0: 065c 8c3c 3481 d7bd c675 a8bd b7f1 ddbc
000003b0: c9e1 89bd aa42 4cba b4b0 b73d 85be a63b
000003c0: 109e ebbb bb80 c1bd 9b02 30bc 092a 4dbd
000003d0: 7296 37bd 55bc e9bd 66a5 4cbd a711 7e3c
000003e0: 84f2 9c3d bfc6 d0bb 2f9e d3bc 5e22 45bd
000003f0: b810 903d 9423 22bc 74b4 a13d 7f27 543c
0.025693513 0.047756184 0.26270422 -0.084499314 -0.009735828 -0.02409356 -0.021276426 -0.00033562514
0.04134787 0.19906577 0.08787385 -0.09123328 -0.08304293 0.036469094 0.3471894 0.0038135943
-0.09747496 0.019453755 -0.03391647 0.0071390127 0.010807129 0.16215478 0.25304627 -0.097725585
0.14742452 -0.02606759 0.0640885 -0.018070914 0.26954007 0.2685974 -0.08625381 0.09676838
0.16120407 0.05081516 0.09591327 0.1122578 0.11697916 -0.1015765 0.37149194 0.07605798
-0.05646168 -0.013856247 -0.12120132 0.13291118 -0.03027913 0.06420821 -0.035611887 0.05064658
0.15804261 -0.010688839 0.044493884 -0.0065525337 0.09849277 0.16770877 0.14440395 0.068236664
0.053677693 0.21188249 0.32240143 -0.09161575 0.13816151 0.13334998 0.18437056 0.104401566
0.07837924 0.07622097 0.06747909 0.07698838 0.29630405 -0.12082531 -0.04209519 -0.14695396
0.109590255 -0.08500318 -0.11733642 0.040750124 -0.056591853 -0.035176218 0.24044904 0.017338283
0.1400273 0.3086992 -0.08181446 0.47892416 -0.12649801 0.16782315 -0.036774598 0.19472241
-0.07125083 -0.085702956 0.2226885 -0.016105054 -0.1648938 -0.033471294 0.28974944 0.044501312
-0.027067862 -0.09311248 0.07008792 0.031548098 -0.06738646 -0.0046718093 0.03322908 -0.053611994
-0.010948264 -0.10831667 -0.09993838 0.02362888 -0.06716763 0.049973186 -0.062424127 0.06753872
0.058698762 0.018527575 -0.19168867 0.14898688 -0.15182102 -0.13753852 -0.09671315 0.022862133
0.02619963 -0.015824113 0.11023745 -0.022011278 -0.011596505 -0.16632123 -0.0118428245 -0.0858494
-0.0071162973 -0.21049036 -0.127206 -0.0060523725 -0.27706787 -0.09387334 -0.09630295 0.016996538
0.0147474315 -0.16362105 -0.13018557 -0.00953735 -0.092883065 0.22631834 0.0419759 -0.12566063
-0.07104776 -0.18891814 -0.06012941 0.13178596 -0.26127297 -0.063118525 -0.020286316 0.062922806
-0.03918226 0.067075714 -0.015266466 0.04144851 -0.14493917 -0.14482409 -0.048527986 -0.06787809
-0.086655274 -0.1226467 -0.055084866 -0.099734105 -0.21700345 -0.1104765 -0.21341762 -0.35833782
-0.10718263 -0.1490299 -0.08659973 -0.004306003 0.03442359 -0.022009647 -0.11554113 -0.013749187
-0.02931148 0.033125024 -0.17174782 -0.015767671 -0.13671394 -0.06213125 -0.027455177 -0.16104952
-0.066231534 -0.012897667 0.1299513 -0.07321005 -0.27411076 -0.021983963 -0.114196025 -0.042334672
0.039640654 -0.23973474 -0.086507946 -0.0010219191 0.030684633 -0.039302338 0.043256823 0.0055211545
-0.010519545 -0.009550493 0.014892388 -0.02401345 0.09257415 0.040695287 -0.045868315 -0.03668958
0.08502264 -0.0277798 0.046851043 0.017626388 -0.07875162 -0.0089938715 0.0058115856 -0.07457134
0.010523195 0.015197911 -0.041859694 0.05216704 -0.12321904 0.0055371504 -0.02670171 -0.070671365
0.11224891 -0.00803065 0.016372459 -0.0458046 0.06367429 0.063535176 0.05922364 0.041450884
0.017133724 -0.105226904 -0.082255885 -0.027092798 -0.06732518 -0.0007791916 0.0896925 0.0050886297
-0.0071904734 -0.094483815 -0.010742809 -0.050088916 -0.04482121 -0.114128746 -0.049962424 0.015507138
0.07663444 -0.0063713486 -0.025832264 -0.04812848 0.07034439 -0.009896178 0.07895747 0.01294887

fc.weight f4 [13, 100]
00000000: 23fe 103d dbbf c53d 7b8f 13be 427b eebd
00000010: d931 aabd 54be 16bd 59de 9dbd a863 7cbd
00000020: 6308 3abd 033c b43e 671a cb3c 5781 ef3d
00000030: 665b 0abd f6fa bdbc db7f 20bd d2d5 863d
00000040: 8816 7f3c 583c f4b8 6946 2f3d 4bb3 31be
00000050: 185a 983c 400c 073d 7fc4 32be 7c81 04be
00000060: 116b 14bb 6273 aabd 4689 ebbd eae5 ddb9
00000070: ec31 07bd a571 82bd b5e8 1b3e 541d 75be
00000080: 9424 923e a682 81be be9f 39be 7cd5 43bd
00000090: 613a 4ebe 7b82 ff3d d47b c8bd efc4 84be
000000a0: dc72 143e ee68 3e3c 0dd0 a33d 5e8b 983c
000000b0: 0fbf 543e 5da6 c63d b1f6 233e 5560 48bd
000000c0: 6e4d 9e3c d196 aebd 5648 46be c2a0 d1bc
000000d0: f345 67bd e1ae 78be a9c2 55be 2ae9 2c3d
000000e0: 0a28 5ebe c97c 193c 5944 82bd 9501 bc3c
000000f0: 3b81 6bbd f01c a53d 1b2a 5fbc 0eaa 2bbe
00000100: 1cde 453e 6745 03be 5b60 77bd d3f6 e2bd
00000110: 6e57 99bc b736 8abd e658 2e3e e8a7 943d
00000120: 5356 81bd 9646 0abb cb53 673d 2e9b 033e
00000130: 5736 253b bd21 bcbb bdf3 a1bb 48c8 ee3b
00000140: f5e4 033e afa3 82be 329b 30be d1a4 a03d
00000150: f95c d0bd 6735 d93d 84b2 083d 1d50 3a3e
00000160: 4700 9ebd bb9f 513d 0046 483e 04c0 063e
00000170: 6802 12bd 8203 72be b781 f3bd bab5 b0bc
00000180: 07d9 a5bd 5e1e f4bd 6262 e83c c992 4fbe
00000190: 66ac 463d 94a9 84bd 4041 19be c0e1 90bd
000001a0: bf33 68bd ae27 a73d d72c 9cbd 3295 f03c
000001b0: c4c3 c2bd d5b2 cb3d 74b2 9abd 98f8 0c3e
000001c0: 5a7e d43a 667c 15be 047d 0e3e 2b86 4a3e
000001d0: 8ace 3f3d 6aad 133e 9cb0 c1bb d38a a6bd
000001e0: cef9 103e 0e0c 8b3d 4e71 51be 6284 47bd
000001f0: 0d56 1bbe cc47 eebd 1005 b7bd 34a3 a4bd
00000200: 91be 7f3d d4c4 053c a2a7 383d 4bc4 03be
00000210: 2804 163e c037 bf3d 9a21 f7bb 8472 02bd
00000220: 88dd ec3d 5e96 d03d ea48 de3e 89c0 78bc
00000230: a662 013e dee2 96bd e45d 133e 259d 743e
00000240: 8751 c53c 5b86 593d ae76 b03d 3458 d8bd
00000250: e269 83be e569 c83d b0a5 54be 1448 473d
00000260: 1605 a53d fbbc 61bb f674 c13d 5c5f e63d
00000270: b530 f33b 10c3 193e 8777 0e3d 4ade 29bc
00000280: 35dd 4d3d 2cc1 683d 36c5 76be fcd8 03be
00000290: ceff da3b a85f 36be d4df 363e ea88 693e
000002a0: 859c 83be 8791 3ebc 3a15 8abd 09bb 75bd
000002b0: 3157 903d de1e 1f3d 0846 d43d e3f9 94bd
000002c0: fe86 1a3a 5c98 bf3d b67f 183c e550 073d
000002d0: e605 ce3d 4f54 c4bd ab50 d3bd 4492 51be
000002e0: 62c7 6abe 5b4f 2d3e 1bca 2e3c 6573 943e
000002f0: a5aa 78be bc6f dbbc 6592 0c3e 88f3 a63d
00000300: f57f 9ebd 3662 a1bd ef26 a43e e184 1dbe
00000310: cdec f33c b562 c0bd 8990 4a3c b818 123b
00000320: 3ab9 bcbc 9e71 8fbb bf87 a1bd ea81 003e
00000330: 4017 0bbd 006e 7f3c 18cb b639 19af 0fbd
00000340: c2c0 863d a6f4 46be 63fc ca3d f7b6 463b
00000350: cfee ccbc 9e97 a8bc 625c c93d f1f1 033e
00000360: b2c7 c23b a7c7 b1bb 1858 823d 1410 c8bd
00000370: 2532 433e ff38 d9bc 2093 98bd 9cb9 14bd
00000380: ed9d 723d 8d1a 10be a32a 263e 98e5 323d
00000390: 404e bebd 3979 ce3c b6d2 a8bd 958a d6bd
000003a0: 96be 803e 0ba4 113e 5bf6 303e d426 f83d
000003b0: 0a7c 4f3e c13a 283b ced3 b93e e1c3 b1bd
000003c0: 4932 4dbd 89aa b3bd 4737 0c3d 568f 26bc
000003d0: b5be a4bc 11be 103f f62c 0f3d ff70 2dbe
000003e0: f517 043e 69d7 03bd b295 523d 8243 05bd
000003f0: 789c b8bc d6cb a3be 2693 88be 781e ad3d
0.035398614 0.09655734 -0.14410202 -0.11644603 -0.08310289 -0.036802605 -0.07708425 -0.061618477
-0.045418154 0.35202035 0.024792863 0.116945915 -0.03377857 -0.023190957 -0.039184432 0.06583752
0.015569337 -0.000116460666 0.042791758 -0.17353551 0.018597648 0.032970667 -0.1745777 -0.1294002
-0.0022646824 -0.08322789 -0.11500792 -0.00042323704 -0.033006594 -0.06369332 0.1522549 -0.23936969
0.28543532 -0.2529499 -0.18127343 -0.047811016 -0.20139457 0.12476059 -0.09789243 -0.25931498
0.1449694 0.011621697 0.07998667 0.018621143 0.20776008 0.096997 0.16012074 -0.048919994
0.01932403 -0.0852486 -0.19363531 -0.02558935 -0.056463193 -0.24285461 -0.20875038 0.04221455
-0.21694961 0.00936813 -0.063606925 0.022949973 -0.05749629 0.0806216 -0.013620879 -0.1676409
0.19323009 -0.12819444 -0.060394626 -0.11082234 -0.018718448 -0.06748717 0.170261 0.07258588
-0.06315293 -0.0021099201 0.056476396 0.12852165 0.002520939 -0.0057413266 -0.004942386 0.007287059
0.12880309 -0.25515506 -0.17246702 0.07843936 -0.10173983 0.10605889 0.03337337 0.18194623
-0.07714897 0.05117772 0.19557953 0.13159186 -0.035646826 -0.2363415 -0.118899755 -0.021571029
-0.08098035 -0.119198546 0.028367225 -0.20270838 0.048504256 -0.06477657 -0.14966297 -0.070743084
-0.056689974 0.08161865 -0.0762574 0.029368017 -0.095099956 0.09946219 -0.075535685 0.13766706
0.0016211972 -0.14598235 0.13914877 0.19777744 0.04682783 0.14421621 -0.005910946 -0.08131947
0.14157793 0.067894086 -0.20453379 -0.048710234 -0.15169545 -0.11634788 -0.089365125 -0.08038941
0.062437598 0.008164603 0.045081742 -0.12867849 0.14650023 0.09336805 -0.0075418474 -0.03184749
0.11565691 0.1018493 0.43415004 -0.015182623 0.12635288 -0.0736749 0.14391285 0.23888071
0.024086727 0.053106647 0.08616386 -0.105636984 -0.2566672 0.09785823 -0.2076633 0.048652723
0.08057611 -0.0034444917 0.09446137 0.11248657 0.007421578 0.15015817 0.03478196 -0.010367939
0.050259788 0.056824848 -0.24098668 -0.12875742 0.0066833263 -0.17809927 0.17858821 0.22806135
-0.25705352 -0.011631376 -0.0674233 -0.059992824 0.070478804 0.038847797 0.1036492 -0.072742246
0.0005894749 0.09355232 0.009307792 0.03303613 0.10059719 -0.09586393 -0.103181206 -0.20465952
-0.22927621 0.16924803 0.010668303 0.2899429 -0.24283846 -0.026786678 0.1372772 0.08151919
-0.077392496 -0.078800604 0.32060954 -0.1538272 0.029776001 -0.09393827 0.012363561 0.0022292566
-0.023037542 -0.004377558 -0.0788722 0.12549558 -0.03395772 0.015590191 0.00034865062 -0.035079096
0.065797344 -0.19429263 0.0991142 0.0030321458 -0.025016217 -0.02058011 0.09832074 0.12885262
0.0059442157 -0.0054254117 0.06364459 -0.09768692 0.19062097 -0.026516436 -0.07449937 -0.036309823
0.05923264 -0.14072628 0.16227202 0.04367599 -0.09292269 0.025204288 -0.08243315 -0.10475651
0.25145406 0.14222734 0.17281477 0.12116781 0.20262161 0.0025669786 0.36294407 -0.08679939
-0.050096784 -0.087727614 0.034232404 -0.01016601 -0.020110467 0.5654002 0.034954987 -0.16937636
0.12899764 -0.032187853 0.05141229 -0.032535084 -0.022535548 -0.31991452 -0.26674765 0.08453077

fc.bias f4 [13]
00000000: b632 af3c 6394 083e 7ac3 b93d be88 963a
00000010: b235 b23d 6d10 843d b6db 793d ba05 f83d
00000020: 3c75 de3d 47d8 cc3d 58bf f43d 3f5d 353e
00000030: 5075 e53d
0.021386486 0.13337855 0.09070487 0.0011484844 0.08701648 0.064484455 0.06100055 0.12110467
0.108622044 0.10002189 0.119505584 0.17711352 0.11204016
